Layer name, IFMAP Height, IFMAP Width, Filter Height, Filter Width, Channels, Num Filter, Strides
CNV1,28,28,4,4,6,1,1
CNV2,8,8,4,4,6,1,1
FC1,1,1,1,1,96,96,1
FC2,1,1,1,1,96,50,1
FC3,1,1,1,1,50,10,1
